nc: 12  # 固定12类（CamVid-12标准）
depth_multiple: 1.0  # 保持VGG16原始深度
width_multiple: 1.0  # 保持原始通道数

backbone:
  [
    # 阶段1：输出64通道，1/2尺度
    [-1, 1, vgg16_bn1, [64]],   # 0: H/2, W/2
    # 阶段2：输出128通道，1/4尺度
    [-1, 1, vgg16_bn2, [128]],  # 1: H/4, W/4
    # 阶段3：输出256通道，1/8尺度
    [-1, 1, vgg16_bn3, [256]],  # 2: H/8, W/8（关键特征层，256通道）
    # 阶段4：输出512通道，1/16尺度
    [-1, 1, vgg16_bn4, [512]],  # 3: H/16, W/16
    # 阶段5：输出512通道，1/16尺度
    [-1, 1, vgg16_bn5, [512]],  # 4: H/16, W/16
    # 空间金字塔池化
    [-1, 1, SPPF, [1024, 5]],   # 5: H/16, W/16（1024通道）
  ]

head:
  [
    # 第1次上采样：融合1/16 → 1/8尺度
    [-1, 1, Conv, [512, 1, 1]],                # 0: 降维至512（来自SPPF的1024通道）
    [-1, 1, Upsample, [None, 2, 'nearest']],   # 1: 上采样至1/8尺度（512通道）
    [2, 1, Conv, [512, 1, 1]],                 # 2: 从backbone第2层（256通道）升维至512
    [[-1, -2], 1, Concat, [1]],                # 3: 拼接第2层（512）和第1层（512）→ 1024通道（关键修正：用-2指向第1层）
    [-1, 3, C3, [512, False]],                 # 4: 融合后512通道
    
    # 第2次上采样：融合1/8 → 1/4尺度
    [-1, 1, Conv, [256, 1, 1]],                # 5: 降维至256
    [-1, 1, Upsample, [None, 2, 'nearest']],   # 6: 上采样至1/4尺度（256通道）
    [1, 1, Conv, [256, 1, 1]],                 # 7: 从backbone第1层（128通道）升维至256
    [[-1, -2], 1, Concat, [1]],                # 8: 拼接第7层（256）和第6层（256）→ 512通道（修正：用-2指向第6层）
    [-1, 3, C3, [256, False]],                 # 9: 融合后256通道
    
    # 第3次上采样：融合1/4 → 1/2尺度
    [-1, 1, Conv, [128, 1, 1]],                # 10: 降维至128
    [-1, 1, Upsample, [None, 2, 'nearest']],   # 11: 上采样至1/2尺度（128通道）
    [0, 1, Conv, [128, 1, 1]],                 # 12: 从backbone第0层（64通道）升维至128
    [[-1, -2], 1, Concat, [1]],                # 13: 拼接第12层（128）和第11层（128）→ 256通道（修正：用-2指向第11层）
    [-1, 3, C3, [128, False]],                 # 14: 融合后128通道
    
    # 最终上采样至输入尺寸
    [-1, 1, Conv, [64, 3, 1]],                 # 15: 细化特征
    [-1, 1, Upsample, [None, 2, 'nearest']],   # 16: 恢复至输入尺寸
    [-1, 1, Conv, [12, 1, 1]],                 # 17: 12通道输出
    [-1, 1, nn.Softmax, [1]],                  # 18: 通道维度softmax
  ]
    